ML_System_Design/Machine_learning_pipeline/pytorch_pipeline/deployment/deploying-pytorch-models/models/classifier.pt (torch_old, 51394 bytes, 6 tensors)

weight f4 [100, 13]
0	0xbe864e3a	-0.26231557
1	0xbe1d9d5c	-0.15392059
2	0x3e342cd8	0.17595232
3	0x3dd801c8	0.10547215
4	0xbcf653c8	-0.030069247
5	0x3e553040	0.20819187
6	0xbdf2e004	-0.11859134
7	0xbe0a4d8d	-0.13506146
8	0x3e4aa8b6	0.1979092
9	0x3e6ce54e	0.23134348
10	0xbe81e7d2	-0.25372177
11	0x3de4676c	0.11152539
12	0xbe52f906	-0.20602807
13	0xbcb4f2c0	-0.022088408
14	0x3e309100	0.17242813
15	0xbe022591	-0.12709643
16	0xbc44d4e0	-0.012013644
17	0x3e10cf48	0.14141572
18	0x3e7c06e2	0.24612
19	0xbe8be595	-0.27323595
20	0xbd6a7044	-0.05723597
21	0x3e0249dc	0.12723488
22	0xbe333821	-0.1750188
23	0x3e3a3ef8	0.18188083
24	0x3d82f988	0.063952506
25	0x3dd13568	0.102152646
26	0xbe296c1a	-0.16545144
27	0x3e8ca891	0.27472356
28	0x3e386bae	0.18009827
29	0x3e58620c	0.21131152
30	0x3e6bc2be	0.23023507
31	0x3d0c32d8	0.034228176
32	0x3dd0311c	0.10165617
33	0x3e7fab0a	0.2496759
34	0x3e4ac832	0.19802931
35	0xbdf65148	-0.12027222
36	0x3ddad4c4	0.10685113
37	0xbe830225	-0.25587574
38	0xbe71e55a	-0.23622647
39	0xbe2e35cc	-0.1701271
40	0x3df5ad68	0.11995965
41	0xbd8a25ab	-0.06745466
42	0x3e69238f	0.22767471
43	0xbd2bf6fc	-0.04198359
44	0x3e87232e	0.26394027
45	0xbe67af29	-0.22625412
46	0xbdfdb07c	-0.12387177
47	0xbe89d821	-0.26922706
48	0x3c99d702	0.018779282
49	0x3ce6dfb4	0.028182842
50	0xbe0b55c9	-0.13606943
51	0xbdc9ca13	-0.09852996
52	0x3c38f520	0.011288911
53	0xbd88131a	-0.06644268
54	0xbde3509c	-0.110993594
55	0x3dcd81c0	0.100345135
56	0xbdab88dc	-0.08375713
57	0xbe532282	-0.20618632
58	0x3dd259cc	0.10271034
59	0xbe3510e2	-0.17682222
60	0xbe8c5094	-0.27405226
61	0x3e2f610c	0.17126864
62	0x3e528dca	0.205619
63	0x3e7fc58e	0.24977705
64	0x3e0ba3e4	0.13636738
65	0xbeaafc9b	-0.33395848
66	0x3fd94a90	1.697588
67	0x3f3a5ba6	0.72796094
68	0xbf7723e8	-0.96539164
69	0xbd2682b4	-0.040651992
70	0x3f5aaf60	0.8542385
71	0x3f9311cc	1.1489806
72	0xbf58af90	-0.8464289
73	0xbf04c656	-0.51865137
74	0x3f1d5f8a	0.61473906
75	0xbf82174d	-1.0163361
76	0x3eefda17	0.46846077
77	0x3c8d4aef	0.017247645
78	0x3e833598	0.25626826
79	0xbe0fbafb	-0.14036171
80	0xbe022061	-0.12707664
81	0xbe01e5ad	-0.1268527
82	0x3dd35ea0	0.10320783
83	0xbda2f2e5	-0.07956485
84	0xbe41b70e	-0.18917486
85	0xbe8329cd	-0.2561783
86	0x3d726d14	0.059186056
87	0xbe816aa8	-0.25276685
88	0xbde11fab	-0.10992368
89	0xbe464a2f	-0.19364236
90	0x3d9eb460	0.077492476
91	0x3e3e1ee0	0.18566465
92	0x3e811941	0.2521458
93	0xbdefe09a	-0.11712761
94	0xbe8209bb	-0.2539805
95	0x3e82ff7f	0.25585553
96	0xbe41d63e	-0.18929383
97	0xbd2639cc	-0.040582463
98	0xbe3c9c94	-0.18419105
99	0xbe182104	-0.14856344
100	0xbe01502e	-0.12628242
101	0x3e557bb0	0.20847964
102	0x3e131b26	0.14365825
103	0x3de17e68	0.11010438
104	0x3dfb619c	0.12274477
105	0xbde39740	-0.11112833
106	0x3dd0bb1c	0.10191938
107	0x3d28a708	0.04117492
108	0x3ddd1620	0.10795236
109	0x3dea1ce0	0.11431289
110	0x3e43e942	0.1913195
111	0x3e8273b3	0.25478896
112	0xbdbc07ee	-0.091812
113	0xbdd001ba	-0.10156579
114	0x3dd5c7f0	0.10438526
115	0xbe7ac894	-0.24490577
116	0xbe4a56e2	-0.19759706
117	0xbe80ab78	-0.2513082
118	0x3e8da44a	0.27664405
119	0x3e12a839	0.14321984
120	0x3e4c286f	0.19937299
121	0x3da3939c	0.07987139
122	0xbd9c844d	-0.07642422
123	0xbe0fcc61	-0.14042808
124	0x3e248cfc	0.16069406
125	0xbd5558b7	-0.05208656
126	0x3e833fab	0.25634512
127	0xbdbc8aba	-0.092061475
128	0x3dd73de5	0.10509852
129	0x3d065383	0.032794487
130	0x3e0d3362	0.13789132
131	0x3e21d86a	0.15805212
132	0x3e071412	0.1319125
133	0x3ddc342c	0.107521385
134	0xbe3cd61b	-0.1844105
135	0xbdd7c0c4	-0.10534814
136	0xbe4c6d87	-0.19963656
137	0xbd9ab5f6	-0.075542375
138	0xbd9f431c	-0.07776472
139	0x3e2ccbe2	0.1687465
140	0x3e5c6dfe	0.21526334
141	0xbe59d78e	-0.21273634
142	0xbe25588c	-0.16147059
143	0xbd9a830c	-0.075445265
144	0x3e5a8fea	0.21343961
145	0xbe017310	-0.12641549
146	0x3da2dbec	0.07952103
147	0xbd836430	-0.064155936
148	0xbcdb4be0	-0.026769578
149	0xbd373200	-0.044725418
150	0x3e6b6166	0.22986373
151	0x3e4e6ede	0.2015948
152	0x3d924d98	0.07143706
153	0x3e745116	0.23859057
154	0xbe6911eb	-0.22760741
155	0xbe065f4a	-0.13122287
156	0x3e517d68	0.20457995
157	0x3e2ddab8	0.16977966
158	0xbe07e694	-0.13271552
159	0xbe84689c	-0.2586106
160	0xbe257b16	-0.16160235
161	0xbcccc130	-0.024994463
162	0xbdf4f182	-0.119601265
163	0x3cf11a20	0.029431403
164	0xbe11b343	-0.14228539
165	0xbe3b2bc4	-0.18278414
166	0x3dd7dce0	0.105401754
167	0x3e126196	0.14295039
168	0x3e201d96	0.15636286
169	0xbdefa15a	-0.11700697
170	0xbe49271c	-0.19643825
171	0x3e1e1c34	0.15440446
172	0x3e2a4dc6	0.1663123
173	0xbe38f9ba	-0.18064013
174	0xbdb7b85e	-0.08970712
175	0x3d808698	0.06275672
176	0x3e18b090	0.14911103
177	0x3c579100	0.013157129
178	0xbd4b6348	-0.04965523
179	0xbdf05e86	-0.11736779
180	0x3db60c2c	0.0888904
181	0x3e69faca	0.22849575
182	0xbca52e30	-0.020163625
183	0x3e0cdb1e	0.13755462
184	0x3d924880	0.071427345
185	0x3e820e07	0.25401327
186	0x3e84e2cf	0.2595429
187	0xbe3c4ce7	-0.18388711
188	0x3d367bc8	0.04455164
189	0x3e127f48	0.14306366
190	0xbe53270c	-0.20620364
191	0x3e583496	0.2111381
192	0x3dccc78c	0.09998998
193	0x3d7ba4e0	0.061436534
194	0x3e218482	0.15773204
195	0xbe65e170	-0.22449279
196	0xbe3cd645	-0.18441112
197	0xbd43d664	-0.04781188
198	0xbe88808d	-0.26660576
199	0x3bfc8440	0.007706195
200	0xbe829200	-0.25502014
201	0x3d07f8d8	0.0331963
202	0x3d4b52d8	0.049639553
203	0xbe2d286a	-0.16909948
204	0x3e732146	0.23743162
205	0x3cd61860	0.02613467
206	0x3e865209	0.26234463
207	0x3e582586	0.21108064
208	0xbd81e321	-0.063421495
209	0xbce816a2	-0.028331105
210	0xbe04b5f1	-0.1296003
211	0xbd05c95a	-0.032662727
212	0xbe1c54d1	-0.1526673
213	0x3ba3b6bd	0.0049961493
214	0x3e81bd47	0.2533972
215	0xbddad229	-0.10684616
216	0x3e29ff34	0.16601259
217	0x3d2abac3	0.041682016
218	0x3e19cd43	0.15019707
219	0xbe066f6a	-0.13128439
220	0x3e2582a9	0.16163124
221	0x3e30c9f8	0.17264545
222	0xbe355038	-0.17706382
223	0x3e680a32	0.22660139
224	0x3e89461b	0.268113
225	0xbe44c1df	-0.19214581
226	0x3e106230	0.14099956
227	0x3e0586d4	0.13039714
228	0x3e4c1542	0.19929984
229	0xbd635f38	-0.05551073
230	0xbc06a540	-0.00821811
231	0x3c3af740	0.011411488
232	0xbd2d11a4	-0.04225315
233	0x3e2f75b0	0.17134738
234	0xbe683259	-0.22675456
235	0x3dbcce1c	0.09219
236	0x3e412f28	0.18865645
237	0x3e8318ad	0.25604764
238	0xbcdc7330	-0.026910394
239	0x3e8d147b	0.27554688
240	0xbe373bdc	-0.17893928
241	0xbe364873	-0.17801075
242	0xbe77870b	-0.24172609
243	0xbe86633b	-0.26247582
244	0xbdb65950	-0.08903754
245	0x3e562978	0.20914257
246	0xbe0519bc	-0.12998098
247	0x3cd69df7	0.02619837
248	0xbd33916f	-0.04383987
249	0xbb42ff0f	-0.0029754078
250	0xbe174a1d	-0.14774366
251	0x3dce4bfa	0.10073085
252	0xbc846f90	-0.016166478
253	0xbbd87c00	-0.006606579
254	0x3e000db8	0.12505233
255	0x3e04b468	0.12959445

bias f4 [100]
0	0xbd2ce520	-0.042210698
1	0xbe2e9e39	-0.17052545
2	0xbb968e00	-0.0045945644
3	0xbe244871	-0.16043259
4	0x3e898ca9	0.26865128
5	0xbf59670a	-0.8492285
6	0x3e7d6c30	0.24748302
7	0xbe8c02b8	-0.27345824
8	0x3be60c80	0.007020533
9	0xbe2a3890	-0.1662314
10	0x3e8ada45	0.2711965
11	0x3c28c280	0.010300279
12	0xbe86280e	-0.26202434
13	0xbe1cfaca	-0.15330043
14	0x3e16e2a4	0.14734894
15	0x39df3800	0.00042575598
16	0xbd8633fd	-0.06552885
17	0x3da5e740	0.08100748
18	0x3d8f1698	0.06986731
19	0xbe840688	-0.25786233
20	0x3e8dbaab	0.2768148
21	0x3e115f22	0.14196447
22	0xbe6d4b32	-0.23173216
23	0xbcb713e0	-0.022348344
24	0x3d6c4248	0.0576804
25	0xbd2e9024	-0.042617932
26	0x3dbe3b70	0.092886806
27	0x3df41f30	0.11920011
28	0xbcf1e538	-0.029528245
29	0x3e9297c6	0.2863142
30	0x3d8346d8	0.06409997
31	0x3e253992	0.16135243
32	0x3e5d62ec	0.21619767
33	0xbe1aaa6c	-0.15104073
34	0x3e753446	0.23945722
35	0xbe32b0c2	-0.1745024
36	0x3e86d98b	0.26337847
37	0xbe2cad32	-0.16862944
38	0x3d544c48	0.05183056
39	0xbdb22f2e	-0.08700405
40	0xbe8c5438	-0.27408004
41	0x3e6ee5a6	0.23329791
42	0x3d1ee078	0.03878829
43	0xbe781109	-0.24225248
44	0x3e156e20	0.1459279
45	0x3e41013a	0.18848124
46	0xbde9a612	-0.114086285
47	0xbc87f300	-0.016595364
48	0x3d8bb2e0	0.06821227
49	0xbe6429b4	-0.22281533
50	0x3e3cc3b8	0.18434036
51	0xbe2e0b5c	-0.16996521
52	0x3a88da00	0.0010440946
53	0xbe4a7057	-0.19769417
54	0x3dbfd54c	0.09366855
55	0xbe866b44	-0.26253712
56	0x3e8a144b	0.26968607
57	0x3dab9d38	0.083795965
58	0x3d095180	0.03352499
59	0xbe0771f0	-0.13227057
60	0xbc0d22e0	-0.008614272
61	0x3dc44c74	0.09584895
62	0xbe035aea	-0.1282765
63	0x3e5a246e	0.2130296
64	0xbe491675	-0.19637473
65	0xbe636b4c	-0.222089
66	0xbd4db043	-0.050216924
67	0x3daf6964	0.085650235
68	0x39c0d400	0.00036779046
69	0xbdff3ef8	-0.12463182
70	0x3dd04bbc	0.10170695
71	0xbe311647	-0.17293654
72	0x3e23f1c0	0.16010189
73	0xbe389246	-0.18024549
74	0xbc509980	-0.01273191
75	0xbf1c1c0d	-0.609803
76	0x3d55cda0	0.052198052
77	0x3e7950fa	0.24347296
78	0xbe152d2d	-0.14568014
79	0x3e75e736	0.24013981
80	0x3e90b72b	0.28264746
81	0xbdef022c	-0.11670336
82	0x3e33ffdc	0.17578071
83	0x3e824f83	0.25451288
84	0x3da57a60	0.08079982
85	0x3da2ecc0	0.07955313
86	0xbe7461c2	-0.23865417
87	0xbe18bc93	-0.14915685
88	0xbd6de68c	-0.058081195
89	0x3e510266	0.20411071
90	0xbdb5e3e4	-0.08881357
91	0x3dd65651	0.10465682
92	0xbdf6dc58	-0.12053746
93	0xbe59284c	-0.21206778
94	0x3e153880	0.14572334
95	0xbe8cb644	-0.27482808
96	0x3ee95633	0.45573577
97	0x3c852750	0.016254097
98	0x3d5bb880	0.05364275
99	0x3dbb5110	0.09146321

weight f4 [100, 100]
0	0x3d968cb9	0.073510595
1	0xbd876ab4	-0.06612149
2	0xbd869d10	-0.06572926
3	0xbda3c8fa	-0.079973176
4	0xbcac7457	-0.021051569
5	0x3f385e15	0.7201856
6	0x3d7c99d3	0.061670136
7	0xbd94d596	-0.07267301
8	0x3d98fb69	0.07469828
9	0xbcec1292	-0.028817449
10	0x3c0f97b0	0.008764192
11	0x3dc2cff9	0.09512324
12	0xbcf240d4	-0.029571928
13	0x3dc43ba8	0.09581691
14	0x3db5e840	0.08882189
15	0x3da57f69	0.08080942
16	0xbd481245	-0.04884555
17	0xbd70f59b	-0.058827978
18	0x3d639f1a	0.055571653
19	0xbced1665	-0.028941343
20	0xbedee3af	-0.43533084
21	0xbc8d2d18	-0.017233416
22	0xbdab82cd	-0.08374558
23	0xbdb979a2	-0.09056403
24	0xbd11a2f9	-0.035555813
25	0xbd78b797	-0.06072196
26	0xbd409550	-0.047017395
27	0x3bcc7a7f	0.0062401886
28	0x3db425ea	0.08796294
29	0xbeb2e9b1	-0.34943917
30	0xbd889392	-0.06668772
31	0xbd2d0797	-0.042243566
32	0xbd96f0ee	-0.073701724
33	0x3dd72748	0.10505539
34	0xbd7649ee	-0.0601291
35	0xbd579848	-0.05263546
36	0x3c2e331b	0.010632302
37	0x3daa9521	0.08329225
38	0x3d9ed475	0.07755367
39	0x3d47f884	0.048820987
40	0xbd19d14d	-0.03755312
41	0x3d098a16	0.033578955
42	0x3c36f49b	0.011166717
43	0x3db8a559	0.090159126
44	0xbdc436db	-0.09580775
45	0xbdaaeea0	-0.08346295
46	0x3d815360	0.06314731
47	0x3c38d59d	0.011281398
48	0x3dd8ab20	0.105795145
49	0x3d651386	0.055926822
50	0x3c22a868	0.0099278465
51	0xbd3a1ac7	-0.045435693
52	0x3d98b289	0.07455928
53	0xbce952ba	-0.02848183
54	0x3b9614cb	0.0045801154
55	0xbda2bd16	-0.079462215
56	0xbd233d84	-0.039853588
57	0x3c1345fd	0.0089888545
58	0xbc341d40	-0.010993302
59	0xbd0e6bc2	-0.034770735
60	0x3dd0c762	0.10194279
61	0x3db85927	0.090013795
62	0x3de0dd96	0.10979764
63	0xbc63f040	-0.0139122605
64	0xbd9f73f6	-0.0778579
65	0x3d9e7b81	0.077384
66	0x3ca2596d	0.019818032
67	0x3d83cbfd	0.06435392
68	0x3d74f082	0.05979968
69	0xbc9e0540	-0.019289613
70	0xbd0a1eb0	-0.033720672
71	0xbd156313	-0.036471438
72	0xbcb41108	-0.021980777
73	0x3d55ba70	0.052179754
74	0xbd97601e	-0.0739138
75	0x3f0ed807	0.5579838
76	0x3b076ac0	0.0020662993
77	0xbe4744af	-0.19459794
78	0xbd8e37f8	-0.06944269
79	0x3d962aa5	0.073323525
80	0xbcd813a7	-0.026376558
81	0x3da4e541	0.08051539
82	0xbc6337f3	-0.01386832
83	0x3da82cc9	0.08211667
84	0xbd671537	-0.056416716
85	0x3cf803fa	0.030275334
86	0x3d97ae61	0.07406307
87	0xbc951934	-0.018200494
88	0x3ddc39b2	0.10753192
89	0x3c89321f	0.016747532
90	0x3ddfe2d2	0.109319344
91	0x3b17d459	0.002316734
92	0xbd884611	-0.06653989
93	0x3dac0f21	0.08401323
94	0xbd7a558d	-0.061116744
95	0xbd5fd9c6	-0.054651044
96	0xbf54a9c7	-0.8307156
97	0xbdb0f67a	-0.08640762
98	0xbd36dfd0	-0.044647038
99	0xbd0dd1a4	-0.034623757
100	0x3c955ff4	0.01823423
101	0x3d3087ec	0.043098375
102	0x3d049dde	0.032377116
103	0xbd9a9f84	-0.075499564
104	0xbdb5c2f2	-0.088750735
105	0xbf54bcf3	-0.83100814
106	0x3d7bf26d	0.061510492
107	0xb99f849b	-0.00030425642
108	0x3cdd6334	0.027024843
109	0x3caf04c5	0.021364579
110	0x3daeffa3	0.085448526
111	0x3ce446e4	0.027865835
112	0xbd35551e	-0.044270627
113	0xbdc20576	-0.09473698
114	0x3dbdd500	0.09269142
115	0xbd749dae	-0.059720688
116	0x3c8a2bd9	0.016866611
117	0xbda39170	-0.079867244
118	0xbd76da53	-0.060266804
119	0xbd4a25d7	-0.049352493
120	0x3ec6d63f	0.38835332
121	0xbd073180	-0.03300619
122	0x3dc93a6b	0.098255955
123	0xbdb2f575	-0.087382235
124	0xbd522e48	-0.05131367
125	0x3db587f3	0.08863821
126	0xbd8b20d6	-0.06793372
127	0x3d9565ec	0.07294831
128	0x3cec0129	0.028809147
129	0x3ecb411a	0.39698106
130	0xbd01d2c9	-0.03169516
131	0xbaacd0c0	-0.0013184771
132	0xbc92b268	-0.017907336
133	0xbc6c9d8a	-0.014441857
134	0xbd98592c	-0.07438883
135	0x3bdf5478	0.0068154894
136	0xbbdffbae	-0.0068354225
137	0x3c272cd8	0.010203563
138	0x3dad9948	0.08476502
139	0xbd00a789	-0.031409774
140	0xbd06ab14	-0.032877997
141	0xbdc2f108	-0.09518629
142	0x3c69ad36	0.014262488
143	0x3d585d12	0.052823134
144	0x3be28148	0.006912384
145	0xbdc15ee0	-0.09441924
146	0xbd83f552	-0.064432755
147	0xbdbcf8a0	-0.09227109
148	0xbc955731	-0.018230053
149	0x3d653976	0.055963002
150	0x3cacbd98	0.0210865
151	0x3d076a32	0.03306026
152	0x3d642e9e	0.05570852
153	0xbdc99ca6	-0.098443314
154	0xbd3715fc	-0.0446987
155	0xbd095af6	-0.033534013
156	0xbcad5ba9	-0.021161871
157	0x3d957cd4	0.072992
158	0xbda011e3	-0.078159116
159	0xbd7dceb0	-0.06196469
160	0x3cba0c87	0.022711052
161	0xbdc2fd50	-0.09520972
162	0x3d9c4cc4	0.076318294
163	0x3c592790	0.013254061
164	0x3d337f32	0.043822475
165	0x3d0b290e	0.0339747
166	0xbda87dbf	-0.08227109
167	0xbbc03dd0	-0.0058667436
168	0xbcb7e600	-0.02244854
169	0xbcae68c0	-0.021290183
170	0x3cf58eac	0.029975258
171	0xbbe4579a	-0.0069684507
172	0x3da560f1	0.08075131
173	0x3bafd306	0.005365732
174	0xbd6e5aa7	-0.05819192
175	0xbf15b589	-0.58480126
176	0xbd3779d3	-0.044793915
177	0x3ee82dd2	0.45347458
178	0xbda8f963	-0.08250692
179	0x3944fc00	0.00018785894
180	0xbdd0511b	-0.1017172
181	0x3da53426	0.08066587
182	0x3bf88609	0.0075843376
183	0x3dc999e3	0.09843805
184	0xbd8a462c	-0.067516655
185	0xbcb71a19	-0.022351312
186	0x3dbeb8b0	0.0931257
187	0xbd074716	-0.033026777
188	0x3d76b257	0.060228672
189	0xbd9f78d8	-0.07786721
190	0xbd6d54e2	-0.05794228
191	0xbd4f1c2e	-0.050563984
192	0xbd6158f7	-0.055016484
193	0xbdb97398	-0.09055251
194	0x3d12810a	0.035767592
195	0xbcdb6f8f	-0.026786594
196	0x3f673af5	0.90324336
197	0xbd103c9c	-0.03521405
198	0x3d0ac129	0.033875618
199	0xbd424250	-0.04742652
200	0x3cc29c80	0.023756266
201	0x3d6cf93e	0.057854883
202	0xbdbd92bd	-0.09256504
203	0x3d9e074f	0.07716238
204	0x3d6ccba6	0.0578114
205	0xbf58c285	-0.84671813
206	0x3d8460e8	0.06463796
207	0xbdcd388f	-0.10020553
208	0xbd954780	-0.07289028
209	0x3c9e9601	0.019358637
210	0x3db32f19	0.087492175
211	0xbdab53cd	-0.08365593
212	0xba973a60	-0.0011537783
213	0xbd3150eb	-0.04329006
214	0xbd5f198c	-0.054467723
215	0xbb859c59	-0.004077476
216	0xbd53dd2c	-0.051724598
217	0xbdd7f57d	-0.1054487
218	0x3d3223ea	0.04349128
219	0x3ad9bf4e	0.0016612799
220	0x3ebd400a	0.3696292
221	0xbd5ff20d	-0.054674197
222	0x3daef389	0.085425444
223	0xbb28c9c0	-0.0025755018
224	0xbd09f8a9	-0.033684406
225	0xbbee1b00	-0.0072664022
226	0xbd741fce	-0.059600644
227	0xbd291918	-0.041283697
228	0xbd701441	-0.058613066
229	0x3ed08fbf	0.4073467
230	0x3b3f33b7	0.0029175112
231	0xbc2d4a10	-0.01057674
232	0x3d91fcdb	0.071283065
233	0xbe03c62b	-0.12868564
234	0x3d2e93fd	0.0426216
235	0xbd955dd3	-0.07293286
236	0x3d636271	0.055513803
237	0xbd61ae3d	-0.055097807
238	0x3d58ead5	0.05295833
239	0xbd98e5e1	-0.07465721
240	0xbd93751a	-0.0720007
241	0x3d0df5d2	0.03465826
242	0xbdcc872b	-0.09986719
243	0xbaf60501	-0.0018769802
244	0x3d9a3916	0.075304195
245	0x3d939bd3	0.072074555
246	0xbd5d107c	-0.0539708
247	0x3d2e9725	0.04262461
248	0x3c3e54d3	0.011616903
249	0x3d4a0c96	0.04932841
250	0x3d133f6e	0.035949163
251	0xbc7cf931	-0.015440271
252	0x3c806cf8	0.01567696
253	0xbde7386f	-0.11290061
254	0x3cd39757	0.025829
255	0x3c30c138	0.010788254

bias f4 [100]
0	0x3bdb7eeb	0.0066984794
1	0xbdc441b8	-0.09582847
2	0x3d07f1e9	0.033189688
3	0x3c924295	0.017854014
4	0xbc85f266	-0.016350936
5	0xbd4b6682	-0.049658306
6	0xbd40c9cd	-0.047067452
7	0xbaf32b47	-0.0018552326
8	0x3d2270ea	0.039658464
9	0x3d6a3898	0.05718288
10	0x3cdd4b99	0.027013587
11	0x3c9b5306	0.018960487
12	0x3d075646	0.03304126
13	0x3d5c041e	0.053714864
14	0x3d94cfdb	0.07266208
15	0x3def40b6	0.116822645
16	0x3d13b7be	0.036063902
17	0x3d45b821	0.048271302
18	0x3d0a67bb	0.03379033
19	0xbdb7045b	-0.089363776
20	0xbdd3d5a8	-0.10343486
21	0x3d3c59cb	0.04598407
22	0xbd8d8982	-0.06910993
23	0x3dc14fe7	0.09439068
24	0xbdfc252d	-0.12311778
25	0xbd7bf1dd	-0.061509956
26	0x3d9a7148	0.07541138
27	0x3d7282ab	0.059206646
28	0x3d0f434f	0.0349763
29	0x3cc9342a	0.024561007
30	0xbd4880f8	-0.04895112
31	0xbd66d576	-0.056355916
32	0x3dad9683	0.084759735
33	0xbde2758d	-0.11057577
34	0xbd924b39	-0.07143254
35	0x3ce01718	0.027354762
36	0xbdd8bcb3	-0.105828665
37	0xbd8de448	-0.06928307
38	0x3dc67f87	0.09692293
39	0x3dd0a70e	0.10188113
40	0xbd8f5119	-0.0699789
41	0xbdb9a542	-0.090647236
42	0x3d56b15e	0.052415244
43	0x3d5514f8	0.05202195
44	0xbc948798	-0.018131062
45	0x3d4be480	0.04977846
46	0x3c6171e1	0.013760061
47	0xbc901bf3	-0.017591452
48	0xbd1ad849	-0.03780392
49	0x3db2d1b7	0.08731406
50	0x3d732f5d	0.05937134
51	0x3d0db7de	0.034599178
52	0xb9b94f56	-0.0003534506
53	0xbc9bcda1	-0.01901895
54	0xbda23fa4	-0.07922295
55	0x3c5f1180	0.013615012
56	0x3d82c194	0.06384578
57	0xbdf233a1	-0.11826254
58	0xbda30592	-0.07960047
59	0x3d7783b8	0.06042835
60	0x3dc59df4	0.09649268
61	0x3d3030aa	0.04301516
62	0x3d843108	0.064546645
63	0x3d071ce9	0.032986555
64	0xbd92dc90	-0.07170975
65	0xbdcc26d9	-0.09968347
66	0xbd5c63a1	-0.05380595
67	0x3c152c4d	0.0091048
68	0x3d758077	0.059936967
69	0x3dd300f4	0.10302916
70	0xbdbd57b8	-0.09245247
71	0x3d5ce098	0.053925127
72	0xbdc2d905	-0.095140494
73	0x3da3c033	0.079956435
74	0xbd78bc43	-0.060726415
75	0xbd24d296	-0.040239893
76	0x3d3857df	0.045005675
77	0xbd994cd4	-0.07485357
78	0xbd2a5c36	-0.041591845
79	0x3d49f8f6	0.049309693
80	0xbccf38c4	-0.025295623
81	0x3d8c24d8	0.06842965
82	0x3d94008c	0.07226667
83	0xbd460f1d	-0.048354257
84	0x3dc78186	0.097415015
85	0xbdb7ddf8	-0.08977884
86	0x3c3febdb	0.011713947
87	0xbb9b37b8	-0.004736867
88	0xbb352c14	-0.002764468
89	0x3d577000	0.052597046
90	0x3c0bc6f1	0.008531318
91	0x3df86563	0.12128713
92	0x3c895ef0	0.016768903
93	0x3ac00705	0.001465053
94	0xbb2c2c95	-0.002627169
95	0x3db59b8f	0.08867561
96	0x3a022f11	0.000496612
97	0x3d7e5c17	0.062099542
98	0xbd25e81e	-0.040504567
99	0xbdab510a	-0.08365066

weight f4 [3, 100]
0	0x3e98ba24	0.29829514
1	0xbe9cb8b0	-0.30609655
2	0xbe90d0d6	-0.2828433
3	0x3eaf5217	0.34242317
4	0xbf135374	-0.57549214
5	0xbd9f74bb	-0.077859364
6	0xbe3a595a	-0.18198147
7	0xbf251658	-0.6448722
8	0x3ea1fe37	0.31639263
9	0xbec1fc83	-0.37887964
10	0xbeaa98df	-0.33319756
11	0x3e4f71c8	0.20258248
12	0xbe7b53e8	-0.24543726
13	0x3eaeead3	0.34163532
14	0x3ecc5790	0.39910555
15	0x3e9eb85b	0.31000027
16	0x3ee100a1	0.43945792
17	0x3e5dc13c	0.21655744
18	0x3eaed990	0.34150362
19	0x3e3db9e7	0.18527947
20	0xbe1ea7ed	-0.15493746
21	0x3d4bbde1	0.04974163
22	0x3eb92b05	0.36165634
23	0x3e8dc12f	0.2768645
24	0x3cbc12cc	0.022958182
25	0xbe88c024	-0.26709092
26	0xbe1a5abf	-0.1507368
27	0x3eb8778e	0.36028713
28	0x3ee0734d	0.43837968
29	0x3eb07ff6	0.34472626
30	0x3ee40b05	0.44539657
31	0x3ea51f36	0.32250375
32	0x3e10b10f	0.14130042
33	0xbe8e1f17	-0.27758095
34	0x3e924fd6	0.28576535
35	0x3ef9c347	0.48781797
36	0xbe5a38ba	-0.21310702
37	0xbe76dc29	-0.24107422
38	0x3d996f31	0.07491911
39	0xbedd085d	-0.43170443
40	0x3ed6f6b0	0.41985083
41	0x3e260db6	0.16216168
42	0xbe9c8b2f	-0.3057494
43	0xbe93161c	-0.28727806
44	0x3eb08d0a	0.34482604
45	0x3ea708c3	0.32623872
46	0x3e5fa94f	0.2184193
47	0xbea77fb5	-0.3271462
48	0xbeb2b668	-0.3490479
49	0x3c6e3a59	0.014540278
50	0xbe264385	-0.16236694
51	0xbf03c3cb	-0.5147063
52	0xbec606a0	-0.3867693
53	0xbe800e9b	-0.25011143
54	0x3e8ad2c5	0.2711393
55	0x3e45d9a7	0.19321309
56	0x3e9e2f7a	0.30895597
57	0xbe2f138e	-0.17097303
58	0x3ece15db	0.4025105
59	0xbe7641cc	-0.24048537
60	0x3e4e0f14	0.2012294
61	0xbeb260ec	-0.3483957
62	0xbe374842	-0.17898658
63	0x3c2a05ae	0.010377331
64	0x3eb67643	0.35637102
65	0xbe881ae5	-0.2658302
66	0xbec0b046	-0.37634486
67	0xbe901335	-0.28139654
68	0x3e789024	0.24273735
69	0x3e7c6c40	0.24650669
70	0x3e0cc970	0.13748717
71	0x3df1c0cb	0.118043505
72	0x3f15f927	0.585833
73	0x3ea5ad7e	0.32358927
74	0x3ed36ba1	0.41293052
75	0x3e8954b7	0.26822445
76	0xbed27f23	-0.41112623
77	0x3e08bb2f	0.13352655
78	0xbe4cf817	-0.20016514
79	0xbefb8416	-0.4912421
80	0x3ebdf5b6	0.37101525
81	0xbe8769b1	-0.26447824
82	0x3e59e4b7	0.21278654
83	0xbe2f4ddd	-0.17119546
84	0x3deed059	0.11660833
85	0x3eff43eb	0.49856505
86	0x3e46dab9	0.19419374
87	0xbe75ddd7	-0.24010406
88	0x3ee57d2e	0.44822067
89	0xbe20dbdc	-0.1570887
90	0xbec77937	-0.38959667
91	0x3eafb74b	0.3431953
92	0xbecd4b4e	-0.40096515
93	0x3eda2058	0.426028
94	0xbe43298b	-0.19058816
95	0x3ea7d3e7	0.32778856
96	0x3e24f761	0.16109993
97	0x3e5bbdf3	0.21459179
98	0xbef93491	-0.48672917
99	0x3e8af5f8	0.27140784
100	0xbeacf56d	-0.33780995
101	0x3e93c4b8	0.28861022
102	0x3dfabb6f	0.12242781
103	0xbe900498	-0.28128505
104	0xbeabf7e9	-0.33587578
105	0x3f03b2c5	0.51444656
106	0x3e801e16	0.25022954
107	0xbeb1e61b	-0.3474587
108	0x3e061cf8	0.13096988
109	0xbe2bc9cd	-0.167762
110	0x3dc61683	0.096722625
111	0xbe6e836a	-0.23292318
112	0x3e92561d	0.28581324
113	0xbe04b293	-0.12958746
114	0xbe5fb1cf	-0.21845172
115	0xbe93f2a2	-0.28896052
116	0x3d8043cd	0.06262932
117	0xbed10514	-0.40824187
118	0xbc246a8c	-0.010035168
119	0xbe97eff0	-0.29675245
120	0x3e8e8814	0.27838194
121	0xbe95bc96	-0.29245442
122	0xbdb39bad	-0.08769927
123	0xbeb2585e	-0.34833044
124	0x3e93917a	0.28821927
125	0x3e4e3f35	0.20141299
126	0x3ea6cf7f	0.32580182
127	0xbe0fd20e	-0.14044973
128	0xbea6dbf0	-0.32589674
129	0xbe69d450	-0.22834897
130	0xbe3c55ae	-0.18392059
131	0xbea95c20	-0.33078098
132	0xbe5ed12a	-0.21759477
133	0x3e72c318	0.23707235
134	0xbeb943b9	-0.3618448
135	0x3de9751c	0.1139929
136	0x3e699824	0.22811943
137	0xbed14463	-0.40872487
138	0xbe9c87d4	-0.3057238
139	0xbe12d915	-0.14340623
140	0x3b8eca1c	0.0043575894
141	0xbe9a8271	-0.30177644
142	0x3e8c4aa4	0.27400696
143	0x3d390ac8	0.045176297
144	0xbe6fb562	-0.23409036
145	0xbe956df0	-0.29185438
146	0xbeb23c0e	-0.34811443
147	0xbe98a8a5	-0.29816166
148	0x3da8b709	0.08238036
149	0xbebf634f	-0.37380454
150	0x3e53efe4	0.2069698
151	0x3ca9a622	0.020709101
152	0xbdbabfe2	-0.0911863
153	0x3e74cb28	0.23905623
154	0x3e3d8204	0.18506628
155	0x3e11d7cb	0.14242475
156	0xbe640d28	-0.22270644
157	0x3e70ace2	0.2350345
158	0x3d1711f1	0.036882345
159	0x3e606167	0.21912156
160	0xbe8dfbb5	-0.277311
161	0xbda30f95	-0.079619564
162	0x3e6b41cb	0.22974317
163	0xbf05d514	-0.52278256
164	0xbe800b73	-0.25008735
165	0x3e7113c9	0.23542704
166	0x3dea9377	0.11453908
167	0x3e4ff3b1	0.20307805
168	0xbe96a7e4	-0.29424965
169	0xbe9e98e6	-0.30976027
170	0x3e99052e	0.29886764
171	0xbebac9dc	-0.3648213
172	0xbe9aac1d	-0.30209437
173	0xbe27c6d1	-0.16384436
174	0xbebdcd3f	-0.37070653
175	0xbe5888a2	-0.21145871
176	0xbe79885f	-0.24368428
177	0x3ebe7f6c	0.3720659
178	0x3eab7296	0.3348586
179	0x3e7ba2f0	0.24573874
180	0x3e7bf37a	0.24604598
181	0x3dc247d1	0.09486354
182	0x3f32654f	0.69685835
183	0x3e8f6367	0.28005525
184	0xbeb3b10b	-0.3509601
185	0x3e0f605f	0.14001606
186	0xbebea020	-0.3723154
187	0x3e41443c	0.18873686
188	0xbdc23b6a	-0.094839886
189	0x3e8bbf5d	0.27294436
190	0xbd4e16dd	-0.050314773
191	0xbe9b5102	-0.30335242
192	0xbd57adff	-0.05265617
193	0xbec36420	-0.38162327
194	0x3e560b79	0.20902814
195	0xbe9a1305	-0.30092636
196	0x3e826394	0.25466597
197	0xbea9f80f	-0.33197066
198	0xbe8a66c1	-0.2703152
199	0xbe46d227	-0.19416104
200	0xbdc342db	-0.09534236
201	0x3dabea82	0.08394338
202	0x3e8b8b9c	0.2725495
203	0xbece73f0	-0.40322828
204	0x3f5d340d	0.8640755
205	0xbf2ab151	-0.66676813
206	0xba1a3163	-0.0005881993
207	0x3f5dcff8	0.8664546
208	0xbed08292	-0.40724617
209	0x3f5d8a88	0.86539507
210	0x3e10e6d1	0.1415055
211	0x3e1ef06d	0.15521403
212	0xbca5be2b	-0.02023228
213	0xbe51d604	-0.20491797
214	0xbe2727e1	-0.16323806
215	0xbe5daaaa	-0.21647134
216	0xbf064df4	-0.524627
217	0x3e42f6f4	0.19039518
218	0xbec75135	-0.38929144
219	0x3e4f9373	0.20271091
220	0xbde3cbde	-0.11122869
221	0x3e8fe7db	0.2810658
222	0xbef830cc	-0.4847473
223	0x3d53feab	0.051756542
224	0xbedc1d9a	-0.42991334
225	0x3e23b52f	0.15987085
226	0xbdea815b	-0.11450454
227	0xbf01a895	-0.5064786
228	0xbe38eea8	-0.1805979
229	0xbead1a1e	-0.33808988
230	0xbeb96d87	-0.36216375
231	0x3e37cf5a	0.17950192
232	0x3e8aa775	0.27080885
233	0x3e8b9a5a	0.27266198
234	0xbd8bceda	-0.06826563
235	0xbf476095	-0.7788175
236	0x3e21f0ff	0.15814589
237	0x3f580fe3	0.8439924
238	0x3c34a243	0.011025014
239	0x3f2e85f5	0.6817315
240	0xbf30773c	-0.6893194
241	0x3e29f314	0.16596633
242	0x3e48c4c9	0.19606318
243	0x3eb12d2c	0.34604776
244	0xbe589311	-0.21149851
245	0xbca1679e	-0.019702729
246	0x3e186de5	0.14885671
247	0x3f3926ea	0.72325003
248	0x3e680ab4	0.22660333
249	0x3efd2eab	0.49449667
250	0x3967a227	0.00022090283
251	0x3f45242d	0.77008325
252	0x3f041a95	0.5160306
253	0xbd879d4b	-0.06621798
254	0xbf3f5c55	-0.7475026
255	0xbf364071	-0.7119208

bias f4 [3]
0	0xbd068e2f	-0.03285044
1	0x3bc8fa8c	0.006133383
2	0xbd59061a	-0.052984335
