ML_System_Design/Machine_learning_pipeline/pytorch_pipeline/deployment/deploying-pytorch-models/models/model_state_dict.pth (torch_old, 48251 bytes, 6 tensors)

fc1.weight f4 [100, 13]
0	0x3d214748	0.03937462
1	0x3e6ac41a	0.2292637
2	0xbe8c824f	-0.27443168
3	0x3e0fd820	0.14047289
4	0x3e3d2ab6	0.18473324
5	0x3e7a4656	0.24440894
6	0xbe388596	-0.18019709
7	0x3e66dd82	0.22545436
8	0x3e2251be	0.15851495
9	0x3e79a942	0.24380973
10	0x3e612aaa	0.21988931
11	0xbe7c41fb	-0.24634545
12	0x3e58c33e	0.21168229
13	0x3e90e53d	0.28299895
14	0xbd76908a	-0.060196437
15	0x3e94c5e4	0.2905723
16	0x3e657484	0.22407728
17	0x3e5e3c44	0.21702677
18	0xbe1a352c	-0.15059346
19	0xbe383ace	-0.17991182
20	0x3ddd0af1	0.107931025
21	0x3e337cb9	0.17528047
22	0x3ea67daf	0.32517764
23	0x3e3929af	0.18082307
24	0xbc8ff4a9	-0.017572718
25	0x3d3b75bd	0.04576658
26	0xbdf2e2c6	-0.1185966
27	0xbe6549fe	-0.22391507
28	0x3d9b313c	0.0757775
29	0xbd95ed44	-0.073206455
30	0xbcdf53b0	-0.027261585
31	0x3afac300	0.0019131601
32	0x3e73db32	0.23814085
33	0x3e6f26be	0.23354623
34	0x3e0c2b0e	0.13688299
35	0xbe6f6cc0	-0.23381329
36	0x3e441e00	0.19152069
37	0x3dd66598	0.10468596
38	0xbe50da4e	-0.20395777
39	0xbde4ebec	-0.11177811
40	0xbd9b4f00	-0.075834274
41	0xbe4c4922	-0.19949773
42	0xbdd66b80	-0.10469723
43	0x3e8d3d37	0.27585766
44	0x3e30cece	0.1726639
45	0xbe29668a	-0.16543022
46	0x3ba7a7c0	0.005116433
47	0xbe402fd0	-0.18768239
48	0xbdaec782	-0.08534147
49	0xbdb65656	-0.08903186
50	0x3c16c180	0.009201407
51	0x3d900428	0.07032043
52	0xbdec7a36	-0.115467474
53	0xbdfb2b38	-0.12264103
54	0x3e5c65b6	0.21523175
55	0xbd8eb5fe	-0.06968306
56	0x3d3be658	0.04587397
57	0x3dd15b80	0.1022253
58	0xbd391f70	-0.045195997
59	0x3dc8ffd4	0.0981442
60	0x3e7cdffe	0.24694821
61	0xbcb0f090	-0.021599084
62	0xbe3af5ca	-0.18257824
63	0x3c69dee0	0.014274329
64	0x3e5f8bb4	0.21830636
65	0xbde4f25a	-0.111790374
66	0xbdc28842	-0.09498645
67	0xbdb1154a	-0.08646639
68	0x3e12fd2c	0.1435439
69	0xbe2f39b6	-0.17111859
70	0xbe6736fa	-0.22579566
71	0x3e63707c	0.22210878
72	0xbdbbbb30	-0.091665626
73	0x3e7072d2	0.234813
74	0xbe8306a1	-0.25590995
75	0xbe79dedb	-0.24401419
76	0xbd2b973c	-0.041892275
77	0xbe46c058	-0.19409311
78	0x3e704396	0.23463282
79	0x3e02063a	0.12697688
80	0xbddbc1c8	-0.1073032
81	0x3dc7bf5c	0.09753296
82	0x3e8cb2f9	0.27480295
83	0xbe3f7580	-0.18697166
84	0xbdcd2c2a	-0.10018189
85	0xbe6b68de	-0.22989222
86	0xbe618fa2	-0.22027448
87	0xbd81ee40	-0.06344271
88	0xbd47a918	-0.048745245
89	0xbe0790f0	-0.13238883
90	0x3e826c8d	0.25473443
91	0xbc1c09e0	-0.009523839
92	0xbceec6e8	-0.02914758
93	0x3d94d734	0.07267609
94	0x3e3adff6	0.18249497
95	0xbe708a6c	-0.23490304
96	0xbe817a6c	-0.25288713
97	0xbd8ef55a	-0.06980391
98	0xbe13721e	-0.14399001
99	0xbd4602f0	-0.048342645
100	0xbe67dfa6	-0.22643909
101	0x3e1f931a	0.15583459
102	0xbddd3a44	-0.10802129
103	0x3e0a8b00	0.13529587
104	0xbe212635	-0.15737231
105	0x3d8948f8	0.06703371
106	0x3e616296	0.22010264
107	0x3d9765ac	0.07392439
108	0x3e2e5aa8	0.1702677
109	0xbe1a5c3c	-0.15074247
110	0xbdf31f60	-0.11871219
111	0xbe49a0aa	-0.19690195
112	0x3e4720cc	0.19446105
113	0x3e1da18e	0.1539366
114	0xbe467611	-0.19380976
115	0x3e6532f2	0.22382715
116	0x3de6c114	0.112672955
117	0x3d174370	0.036929548
118	0x3d509a58	0.050928444
119	0xbe6ca9b5	-0.23111613
120	0xbe526ce8	-0.20549357
121	0x3e6f1862	0.23349145
122	0x3dd53038	0.104095876
123	0xbd5de2dc	-0.054171428
124	0x3d369be8	0.044582278
125	0xbe537ada	-0.20652333
126	0x3e28825a	0.16455975
127	0xbe1a9c23	-0.15098624
128	0x3d4e4750	0.050360978
129	0x3e3b8618	0.18312871
130	0xbd927360	-0.07150912
131	0xbe2a2514	-0.16615707
132	0x3e833ea9	0.25633743
133	0x3daff4bc	0.08591601
134	0x3defef68	0.11715585
135	0x3e4588e2	0.19290498
136	0x3e2faf38	0.17156684
137	0x3e7caa8e	0.24674436
138	0x3e69e42e	0.2284095
139	0xbdc5b420	-0.09653497
140	0xbe8991a6	-0.26868933
141	0x3e344da0	0.17607737
142	0x3dbb3250	0.09140456
143	0x3ccdbdf0	0.025114983
144	0xbe60e6e0	-0.21963072
145	0x3e8bbd27	0.2729275
146	0xbe6625cb	-0.22475354
147	0x3dceadf4	0.10091773
148	0x3e8cf605	0.27531448
149	0xbd8f61a4	-0.07001045
150	0x3e2d72e4	0.16938359
151	0x3d4916e0	0.04909408
152	0x3dda4a04	0.106586486
153	0x3c5c94e0	0.013463229
154	0xbe60d0f0	-0.21954703
155	0xbe8a5ec0	-0.27025414
156	0xbe6c1a08	-0.23056805
157	0xbdf80498	-0.12110251
158	0x3e772f32	0.24139097
159	0xbdd910d8	-0.10598916
160	0x3e6069a8	0.21915305
161	0x3accc500	0.0015622675
162	0x3ddc56e8	0.107587636
163	0x3e818291	0.25294927
164	0xbde2e476	-0.11078732
165	0x3e665582	0.22493556
166	0x3e5928c8	0.21206963
167	0x3d8a278c	0.06745824
168	0xbe1e941c	-0.15486187
169	0xbe6cb69d	-0.23116536
170	0x3ddab644	0.10679296
171	0x3d58f800	0.052970886
172	0xbdd4d432	-0.103920355
173	0x3e35fbe0	0.17771864
174	0x3d5701f0	0.052492082
175	0xbca2d4c0	-0.019876838
176	0xbc58fb80	-0.013243556
177	0x3e68f676	0.22750267
178	0x3d96c5cc	0.073619455
179	0x3e0d241a	0.13783303
180	0x3d3511d8	0.04420647
181	0xbe2203b6	-0.15821728
182	0xbd419d34	-0.04726906
183	0xbcb99e10	-0.022658378
184	0xbd907bf2	-0.07054891
185	0x3e7a383e	0.24435517
186	0xbd8e4050	-0.069458604
187	0xbe3282f3	-0.17432766
188	0x3e7a4a16	0.24442324
189	0x3cf2c590	0.02963522
190	0x3e694dc6	0.22783574
191	0x3df77f90	0.120848775
192	0xbdcfa78e	-0.101393804
193	0x3e2e008c	0.16992396
194	0xbe11fde8	-0.14257014
195	0xbde5b878	-0.11216825
196	0x3e8518e9	0.25995567
197	0x3c2e0c40	0.010623038
198	0x3e56cce6	0.209766
199	0xbe4058d7	-0.1878389
200	0xbe8b1943	-0.2716771
201	0x3df4b0c8	0.11947781
202	0xbe683772	-0.226774
203	0x3dfa28f4	0.122148424
204	0x3e856069	0.26050118
205	0x3e405fc0	0.18786526
206	0x3e57b350	0.21064496
207	0xbe0f1ef0	-0.13976645
208	0x3df767af	0.12080323
209	0xbd830797	-0.06397932
210	0xbe3c7844	-0.18405253
211	0xbea8b3fc	-0.32949817
212	0xbe178cc2	-0.14799789
213	0x3eae592d	0.3405241
214	0x3f2171a0	0.63064003
215	0xbdfffc8c	-0.12499341
216	0xbd80c8f0	-0.06288326
217	0x3e54d0fb	0.20782845
218	0x3e1cf336	0.15327153
219	0x3eada683	0.339161
220	0x3e475835	0.19467242
221	0x3e848a97	0.25886986
222	0x3e1ceb7c	0.15324205
223	0xbd3f887c	-0.04676102
224	0x3c92b1e0	0.017907083
225	0x3d7046e0	0.05866134
226	0x3d93da58	0.0721938
227	0x3d2ff3f8	0.042957276
228	0x3dd1d2c0	0.102452755
229	0xbdb2a38c	-0.087226
230	0xbe83e40d	-0.25759926
231	0xbc05c660	-0.008164972
232	0x3c0d2d40	0.0086167455
233	0xbe3e9c77	-0.18614374
234	0x3e61678e	0.22012159
235	0xbf399b96	-0.7250303
236	0xbf775ab4	-0.96622777
237	0x3dc3068c	0.09522733
238	0x3d6bbc13	0.05755241
239	0x3eb77dee	0.35838264
240	0x3eebeb26	0.46077842
241	0xbea034d9	-0.3129032
242	0x3fb4fae6	1.4139068
243	0xbfa2f3eb	-1.2730688
244	0x3fac79fd	1.3474728
245	0x3f8eef97	1.1166867
246	0xbc9db5a6	-0.019251656
247	0xbe3e5d34	-0.18590242
248	0xbe5aa21e	-0.21350905
249	0xbe29dc0a	-0.16587844
250	0x3dcb0a48	0.0991407
251	0x3e829447	0.25503752
252	0xbbf43d80	-0.0074536204
253	0xbd42d348	-0.047564775
254	0x3e19421c	0.14966625
255	0x3e3ef64c	0.18648642

fc1.bias f4 [100]
0	0xbe2345c2	-0.15944579
1	0x3dbc14e2	0.091836706
2	0xbe452032	-0.19250563
3	0x3e8d1721	0.27556708
4	0x3de68b5c	0.112570494
5	0xbca70d50	-0.02039209
6	0xbdaf8b00	-0.08571434
7	0xbe846d51	-0.25864652
8	0x3e676622	0.22597554
9	0x3d106fb8	0.035262793
10	0x3e85ab05	0.2610704
11	0xbe14ee95	-0.14544137
12	0xbe205a66	-0.15659484
13	0x3e101d34	0.1407364
14	0x3c46a880	0.0121251345
15	0xbe4b3771	-0.19845368
16	0xbb931247	-0.004488263
17	0x3ca86290	0.02055481
18	0x3f8d4b34	1.1038575
19	0xbe3ba744	-0.18325526
20	0xbd31f154	-0.04344304
21	0xbebdc816	-0.37066716
22	0x3ee8a3fe	0.45437616
23	0xbe7340c7	-0.2375518
24	0xbd14c36c	-0.03631918
25	0xbb942c40	-0.0045218766
26	0x3e632e29	0.22185577
27	0x3e85bb01	0.26119235
28	0xbd96b1dc	-0.07358143
29	0x3f1fa4f9	0.62361103
30	0xbdd09fc0	-0.1018672
31	0xbdecd8b8	-0.11564773
32	0x3c554091	0.013015882
33	0xbe285ae4	-0.16440922
34	0xbe01e52d	-0.1268508
35	0x3e10210e	0.1407511
36	0x3da4bc20	0.080436945
37	0x3c4159e0	0.011801213
38	0x3e153da9	0.14574303
39	0xbe34046c	-0.17579812
40	0xbe8b94fb	-0.272621
41	0x3daf5d20	0.08562684
42	0xbe1af00c	-0.15130633
43	0xbced24f8	-0.028948292
44	0xbda96c2e	-0.08272587
45	0x3def3a7c	0.11681077
46	0x3ca1bd20	0.019743502
47	0xbe548fe8	-0.20758021
48	0x3e4123d6	0.18861327
49	0xbc018b00	-0.007906675
50	0xbe2f23d4	-0.17103511
51	0xbd1e7138	-0.038682193
52	0x3e1f9a44	0.15586191
53	0x3e531f8e	0.20617506
54	0xba63f400	-0.00086957216
55	0x3e547ca4	0.20750672
56	0x3e4d8390	0.20069718
57	0x3e865aa9	0.26241043
58	0x3f0588ce	0.5216187
59	0xbddacae8	-0.106832325
60	0x3ddcb37e	0.10776423
61	0x3d824dad	0.06362472
62	0xbd19c4ef	-0.037541326
63	0xbd88cf88	-0.066802084
64	0x3dc58e60	0.096462965
65	0x3e022908	0.12710965
66	0x3e040aa6	0.12894687
67	0xbdde33cb	-0.108497225
68	0x3d4af000	0.049545288
69	0x3e79d1e2	0.2439647
70	0x3e89bff3	0.26904258
71	0x3dab74bc	0.08371875
72	0xbd8d8d6c	-0.0691174
73	0x3e583274	0.21112996
74	0xbde38448	-0.11109215
75	0xbdbf83f4	-0.0935134
76	0xbced6bb0	-0.028982013
77	0x3f073d00	0.52827454
78	0xbe55f558	-0.20894372
79	0x3c8e9bd0	0.017408282
80	0x3e84c3fd	0.25930777
81	0xbc056980	-0.008142829
82	0xbdb74750	-0.08949149
83	0x3e9beed4	0.3045565
84	0x3d8c60b0	0.06854379
85	0xbe36e0ab	-0.17859142
86	0xbd4d2260	-0.05008161
87	0xbe32fc65	-0.17479093
88	0x3b43be80	0.0029868186
89	0xbdf0145a	-0.11722632
90	0xbe176585	-0.1478482
91	0x3e90ad8d	0.2825741
92	0xbe4a44d4	-0.19752818
93	0xbd2743cc	-0.04083614
94	0xbe854616	-0.26030034
95	0xbe1962b4	-0.14979059
96	0x3d681c78	0.056667775
97	0xbdd44a1c	-0.10365698
98	0x3cdf6a3d	0.027272338
99	0x3e8a286b	0.2698396

fc2.weight f4 [100, 100]
0	0x3dc79b13	0.09746375
1	0x3d8dad21	0.06917787
2	0xbda57aae	-0.0808004
3	0x3cee1bd1	0.029065998
4	0x3dd38555	0.103281654
5	0x3dcc6087	0.09979349
6	0x3ccac2d9	0.024751114
7	0xbbc7b3ec	-0.0060944464
8	0xbd26aadd	-0.04069029
9	0x3da83b81	0.082144745
10	0x3bc58e46	0.006028923
11	0x3da432cd	0.08017502
12	0xbd655a4d	-0.05599432
13	0x3d1f3a02	0.03887368
14	0xbcd59c68	-0.026075557
15	0xbd93ac46	-0.07210593
16	0x3ed7679c	0.42071235
17	0x3db154c3	0.08658745
18	0xbfc9c407	-1.5762948
19	0xbcf05d14	-0.029341258
20	0x3df6582f	0.120285384
21	0x3eb8cd93	0.3609434
22	0xbf3ebc2b	-0.7450587
23	0x3dc27a77	0.094960146
24	0x3d808d2d	0.06276927
25	0xbd9c5e75	-0.07635204
26	0x3c3b1b46	0.011420077
27	0x3d8b9a02	0.06816484
28	0x3cd795ac	0.026316486
29	0xbf92ce1c	-1.146915
30	0x3d8c1c5c	0.068413466
31	0x3d83d7a7	0.06437617
32	0xbcea3911	-0.028591665
33	0x3c901f38	0.017593011
34	0x3c819bce	0.015821364
35	0x3dcc662b	0.099804245
36	0xbd19d2aa	-0.03755442
37	0x3ce312e4	0.027718969
38	0xbda554c0	-0.080728054
39	0x3d7ace72	0.061232038
40	0x3d8d3975	0.06895725
41	0x3da17a7c	0.0788469
42	0xbb4dcba0	-0.0031401888
43	0xbcc8eea8	-0.024527863
44	0xbdb40d68	-0.087916195
45	0x3db22319	0.086981006
46	0xbba9a227	-0.005176801
47	0xbd0760c2	-0.03305126
48	0x3da676b5	0.0812811
49	0xbd829e42	-0.063778415
50	0x3d96a6a2	0.073560014
51	0xbd1b134e	-0.037860207
52	0x3d83d552	0.06437172
53	0x3b24f1c0	0.0025168508
54	0x3d4d72e2	0.05015839
55	0xbd95d432	-0.07315864
56	0xbef29be8	-0.47384572
57	0x3d79cddb	0.060987335
58	0xbedb9aa3	-0.42891416
59	0x3dcc2ba9	0.09969265
60	0x3df7bd86	0.120966956
61	0x3d8e52b7	0.0694937
62	0xbe70d5bc	-0.23519033
63	0xbd54360e	-0.051809363
64	0x3dc10435	0.094246306
65	0xbd09b0c6	-0.03361585
66	0xbd8bccb0	-0.068261504
67	0x3e157245	0.14594372
68	0xbdbb4017	-0.091430835
69	0xbcbe4378	-0.023225531
70	0xbbf23a30	-0.0073921904
71	0x3da5cf4b	0.080961786
72	0x3c5b2230	0.01337485
73	0x3dc8aa74	0.09798136
74	0x3d946c4f	0.07247221
75	0x3e13de24	0.14440209
76	0x3da48a1d	0.080341555
77	0xbf05abb3	-0.5221512
78	0xbc53ed98	-0.012935065
79	0xbcb264fe	-0.021776672
80	0x3dc18c2d	0.094505645
81	0xbc0551a0	-0.008137137
82	0xbd0a570a	-0.033774413
83	0x3bafdf98	0.0053672306
84	0x3c125400	0.00893116
85	0x3d8481f2	0.064700976
86	0xbcea98e8	-0.028637365
87	0x3cff120b	0.031136533
88	0xbd424863	-0.047432315
89	0x3c56ea98	0.013117455
90	0x3dae17ed	0.08500657
91	0xbe861713	-0.2618948
92	0x3d62e49a	0.055393793
93	0x3c9b4538	0.018953905
94	0x3ddc23d2	0.1074902
95	0xbcf22508	-0.029558674
96	0x3d23af11	0.03996188
97	0x3cc741bc	0.024323337
98	0x3d054f34	0.032546237
99	0x3bbef7a0	0.005827859
100	0xbdaa20b7	-0.08307021
101	0x3c077088	0.008266576
102	0xbda77a18	-0.081775844
103	0xbda7247b	-0.08161255
104	0x3d0001a0	0.03125155
105	0xbd1f3a83	-0.03887416
106	0xbdae05b5	-0.08497182
107	0xbda924ab	-0.08258947
108	0x3dadee77	0.08492749
109	0xbb7f160f	-0.003892306
110	0x3d3d7098	0.046249956
111	0x3d3bd7b2	0.04586
112	0x3d66120e	0.056169562
113	0xbcbb2d38	-0.02284871
114	0x3d92af5b	0.07162353
115	0xbd8da866	-0.06916885
116	0x3eb75812	0.3580938
117	0xbd6371c7	-0.05552843
118	0xbe3d6f05	-0.18499382
119	0x3d668492	0.056278773
120	0xbd9d601d	-0.07684348
121	0x3e85093f	0.25983617
122	0xbf2aa3eb	-0.6665637
123	0x3cb92dac	0.022604786
124	0xbd8709a2	-0.06593634
125	0x3d5a440a	0.053287543
126	0xbcd31b68	-0.025769904
127	0x3c687917	0.014189026
128	0x3d0a9bda	0.033840038
129	0xbf6e06c1	-0.92979056
130	0xbd071fc8	-0.032989293
131	0xbdc70d45	-0.09719328
132	0xbd3a4c9e	-0.045483224
133	0xbd2faff0	-0.042892396
134	0x3db4757d	0.088114716
135	0xbd48bb03	-0.049006473
136	0xbc5abfc0	-0.013351381
137	0x3daa04f7	0.08301728
138	0xbe0a1893	-0.13485937
139	0xbcea0d20	-0.028570712
140	0x3dcb1129	0.099153824
141	0x3d5ca500	0.053868294
142	0x3dcc3195	0.099703945
143	0x3d1a2e12	0.037641592
144	0x3da7d469	0.08194811
145	0xbdab11ba	-0.083529904
146	0x3ce2afbc	0.027671687
147	0xbb820868	-0.0039682873
148	0x3ca19728	0.019725397
149	0xbd3a19fa	-0.04543493
150	0xbcf7bbc0	-0.030240893
151	0x3dd28e2d	0.10281024
152	0x3d2d0d32	0.042248912
153	0xbda8324d	-0.08212719
154	0xbd19738c	-0.03746371
155	0xbc0178e8	-0.007902361
156	0xbebe558b	-0.3717464
157	0x3caaa9a6	0.020832848
158	0x3fc182d3	1.5118049
159	0x3d886ff0	0.066619754
160	0xbd1cb5e7	-0.038259413
161	0x3e22126e	0.15827343
162	0x3d827d40	0.06371546
163	0xbd671e82	-0.05642558
164	0x3c9dfa08	0.019284263
165	0x3b629cc0	0.0034578294
166	0x3b1d4460	0.0023997054
167	0x3d2a9ba2	0.04165233
168	0xbc1e0568	-0.009644844
169	0x3c004418	0.007828735
170	0x3d90fbcf	0.07079279
171	0xbd02e0c9	-0.031952653
172	0xbcf1d520	-0.029520571
173	0x3ccc6dc2	0.02495468
174	0xbd560e33	-0.052259635
175	0xbda2c251	-0.07947219
176	0x3bc53041	0.006017715
177	0xbf4fe061	-0.8120175
178	0xbc424d28	-0.011859216
179	0xbccb3fe4	-0.024810739
180	0xbdacea9b	-0.08443185
181	0xbb95008a	-0.0045471834
182	0x3d551d2c	0.052029774
183	0x3bdc6bd0	0.0067267194
184	0x3d85b3cf	0.065284364
185	0x3d7b3cb8	0.061337203
186	0xbd89219a	-0.06695862
187	0xbc584b2f	-0.013201519
188	0xbc7f32a8	-0.015576042
189	0xbb43a940	-0.002985552
190	0x3d8bad31	0.06820143
191	0xbe85731b	-0.2606438
192	0x3d4d456c	0.050115034
193	0xbcd4c54c	-0.025972985
194	0x3cdc620e	0.026902225
195	0x3d9627b8	0.073317945
196	0xbd204ab8	-0.039133757
197	0x3dc02896	0.09382741
198	0xbd6aa5e7	-0.057287123
199	0xbce2d058	-0.027687237
200	0x3d16c5a8	0.036809593
201	0xbc11e2ac	-0.00890414
202	0x3d775d96	0.060391985
203	0x3db7669a	0.089551166
204	0xbd1e0df2	-0.038587518
205	0x3b0d1440	0.0021526963
206	0x3dc81632	0.097698584
207	0x3d12052c	0.035649464
208	0xbd8ee570	-0.069773555
209	0x3d8fbaa6	0.07018022
210	0x3d179d94	0.037015513
211	0x3d4a9022	0.049453862
212	0x3caa37e0	0.020778596
213	0xbd42d0c0	-0.04756236
214	0xbd9337a5	-0.07188348
215	0x3d52f662	0.0515045
216	0x3eb00a2b	0.34382758
217	0xbd270aea	-0.040781893
218	0xbf1dd950	-0.6165972
219	0x3ceaab84	0.028646238
220	0x3d6ca4a0	0.057774186
221	0x3eb914ed	0.36148778
222	0xbf313945	-0.6922801
223	0x3d96777b	0.07347008
224	0xbda73982	-0.081652656
225	0xbd7c5f60	-0.061614394
226	0x3c09b619	0.008405232
227	0x3db53c30	0.088493705
228	0xbc491e28	-0.012275256
229	0xbf8294e0	-1.0201683
230	0x3dd652ea	0.10465033
231	0x3d1c00b2	0.0380866
232	0xbbc16abb	-0.005902616
233	0x3c81c7b8	0.015842304
234	0xbd8a77a0	-0.06761098
235	0xbc4f41b0	-0.012649938
236	0x3d2175b2	0.039418884
237	0xbd2575f7	-0.040395703
238	0xbe27ed7d	-0.16399188
239	0xbda5ee53	-0.08102097
240	0x3d29f65e	0.04149472
241	0xbd66985c	-0.056297645
242	0x3d143c92	0.036190577
243	0xbc85d820	-0.016338408
244	0xbccf65d8	-0.025317118
245	0x3bfdb5b0	0.007742606
246	0x3d957f1e	0.07299636
247	0x3de744e6	0.11292438
248	0x3da24314	0.079229504
249	0x391b5600	0.0001481399
250	0xbd88811e	-0.06665252
251	0x3ca0d665	0.019633481
252	0xbd95664e	-0.07294904
253	0xbdc5fc2a	-0.09667237
254	0x3d50aca2	0.050945885
255	0xbdc57893	-0.09642138

fc2.bias f4 [100]
0	0x3d9a3c46	0.075310275
1	0xbd174149	-0.036927495
2	0xbd9b142a	-0.07572205
3	0xbd8dab5e	-0.06917451
4	0xbcda278b	-0.026630184
5	0xbdd46be6	-0.103721425
6	0x3c822159	0.015885042
7	0xbd29e6ae	-0.04147976
8	0xbc802aaf	-0.015645353
9	0xbd1714a8	-0.036884934
10	0x3d15dac1	0.036585573
11	0xbe08baff	-0.13352583
12	0xbd36d982	-0.044641025
13	0x3da67e27	0.081295304
14	0xbdae0c0a	-0.0849839
15	0x3ce6df76	0.028182726
16	0xbd2145da	-0.039373256
17	0x3d9a25eb	0.075267635
18	0xbcc3172f	-0.023814766
19	0xbd3f735c	-0.046740875
20	0xbc560818	-0.013063453
21	0x3df3d401	0.11905671
22	0xbce3e0c6	-0.027817141
23	0x3d9630e8	0.07333547
24	0x3d253bff	0.04034042
25	0xbe0ee2f3	-0.13953762
26	0xbd9876f6	-0.07444565
27	0x3c12d8e5	0.0089628445
28	0xbd37f669	-0.04491273
29	0x3d788adb	0.060679298
30	0xbc921110	-0.017830402
31	0x3d857147	0.065157466
32	0xbcaea935	-0.021320919
33	0xbda2e6ea	-0.079541996
34	0xbd9e8c6d	-0.07741628
35	0x3da32a90	0.079671025
36	0x3dd8d727	0.10587912
37	0xbc16590e	-0.009176506
38	0xbd3d9620	-0.04628575
39	0xbde3cfb1	-0.11123598
40	0x3d9ad5f9	0.07560343
41	0xbd33e3b4	-0.043918326
42	0x3d62a3cb	0.055331986
43	0x3d8c1082	0.06839086
44	0xba5ea27b	-0.00084928394
45	0xbd54f6c1	-0.051993135
46	0x3c3289de	0.010897128
47	0x3a40b36e	0.0007350956
48	0x3bb54ae2	0.0055326084
49	0x3d2a6fb3	0.04161043
50	0x3d6a0c77	0.057140794
51	0xbd441503	-0.0478716
52	0x3d36da09	0.04464153
53	0x3ce71376	0.028207522
54	0xbc1fafec	-0.009746533
55	0x3d4d912a	0.050187267
56	0x3d150419	0.03638086
57	0x3d0c901b	0.034317117
58	0x3d52b442	0.05144144
59	0x3d3e0c54	0.046398476
60	0xbd4efb37	-0.050532546
61	0x3de81663	0.11332395
62	0xbce3aeb9	-0.027793275
63	0xbd36fbae	-0.044673614
64	0x3ce81824	0.028331824
65	0xbcf084f0	-0.029360265
66	0x3d293c75	0.041317422
67	0x3cd14e41	0.02555001
68	0xbddb4ab2	-0.107076064
69	0xbd8ec5df	-0.06971335
70	0x3c41a776	0.011819711
71	0xbda78e49	-0.081814356
72	0xbd95fb08	-0.07323271
73	0x3d59d4d2	0.053181477
74	0xbcbbe261	-0.022935094
75	0x3d856f6f	0.06515395
76	0x3ce05976	0.027386408
77	0xbcd86d26	-0.026419234
78	0x3c4b107c	0.012394067
79	0xbc800185	-0.015625725
80	0x3e005370	0.12531829
81	0x3d736512	0.05942256
82	0x3b319d3d	0.0027101778
83	0xbe0169a0	-0.12637949
84	0x3d616ba0	0.05503428
85	0x3ac310b9	0.0014882303
86	0xbcda10d3	-0.02661935
87	0xbbca304f	-0.0061703096
88	0xbd5ad692	-0.053427286
89	0x3df3decc	0.119077295
90	0xbd1276db	-0.03575788
91	0xbd087796	-0.03331717
92	0xbdf5cbf7	-0.12001794
93	0x3d29bbe5	0.041438956
94	0x3d909e35	0.070614256
95	0x3dfdbfeb	0.12390121
96	0xbc8bbe31	-0.017058464
97	0xbd4252fd	-0.047442425
98	0xbd4243cc	-0.047427937
99	0x3d39afac	0.04533355

fc3.weight f4 [3, 100]
0	0x3ef1f4e5	0.47257152
1	0x3ec9a292	0.39381844
2	0x3f07cd43	0.5304758
3	0x3ee2307b	0.44177613
4	0x3ef6dbb1	0.48214486
5	0xbefc1d29	-0.49240997
6	0xbe7ae42b	-0.24501102
7	0x3e518a3f	0.20462893
8	0x3ec061f4	0.37574732
9	0xbef233d0	-0.47305155
10	0x3edd1382	0.43178946
11	0xbf02c313	-0.5107891
12	0x3e8a26ea	0.26982814
13	0x3ed8d81e	0.42352384
14	0xbeea878d	-0.45806542
15	0xbedfc48a	-0.43704635
16	0xbe74d9b2	-0.23911169
17	0x3e88a41a	0.266877
18	0x3eb57990	0.35444307
19	0x3e81a990	0.25324678
20	0xbd97c2eb	-0.074102245
21	0xbd9cb054	-0.076508194
22	0x3ef99872	0.4874912
23	0x3eee2d7d	0.4651908
24	0xbf063543	-0.5242502
25	0xbec91882	-0.3927651
26	0xbef22ee8	-0.47301412
27	0x3ebb7909	0.3661578
28	0x3e19242d	0.14955206
29	0x3ee3285a	0.44366723
30	0xbd46e6ec	-0.048560068
31	0x3ed04bcb	0.40682825
32	0xbeebb861	-0.46039107
33	0x3c2375ea	0.009976843
34	0xbe25bb05	-0.16184624
35	0x3edd1259	0.4317806
36	0xbf1c0592	-0.60946
37	0xbee740ce	-0.4516663
38	0xbeb06b68	-0.34456944
39	0xbef1e538	-0.47245193
40	0x3ed9884f	0.42486808
41	0x3e9ceae9	0.30647972
42	0x3e66f3bf	0.2255392
43	0x3f189cdf	0.59614366
44	0xbf08fec3	-0.53513736
45	0xbec2d57e	-0.38053507
46	0xbed603f0	-0.4179988
47	0xbef54744	-0.47905934
48	0x3e302f32	0.17205504
49	0xbf14dad2	-0.58146393
50	0x3eae587a	0.34051877
51	0x3d412487	0.047153976
52	0xbe6fd845	-0.23422344
53	0xbede5288	-0.4342234
54	0x3ec6f9d1	0.3886247
55	0x3e905036	0.28186196
56	0x3ed1e69b	0.4099625
57	0x3eec6c54	0.46176398
58	0x3ef61762	0.48064715
59	0xbee9e345	-0.45681205
60	0xbedaac4d	-0.4270958
61	0x3e1a2eae	0.1505687
62	0xbebe5be4	-0.37179482
63	0xbeeae493	-0.45877513
64	0xbeff999c	-0.49921882
65	0xbe1840ec	-0.14868516
66	0xbe8f8980	-0.28034592
67	0xbf1ffc6a	-0.6249453
68	0xbdcff2b2	-0.10153712
69	0xbf15dcf8	-0.58540297
70	0x3ef7b202	0.48377997
71	0x3e2a3c6a	0.16624609
72	0xbe6264bb	-0.22108738
73	0x3f0015c7	0.5003323
74	0x3e325e31	0.17418744
75	0x3e3e6248	0.18592179
76	0x3e67481a	0.22586098
77	0x3f06f754	0.5272114
78	0xbefe50be	-0.49670976
79	0xbf3053ff	-0.6887817
80	0x3ef16dfa	0.47154218
81	0x3f517c85	0.81830627
82	0x3ed16cae	0.4090323
83	0xbf06b7ae	-0.5262402
84	0xbe956d5a	-0.2918499
85	0xbf1c249c	-0.6099336
86	0x3ebf2fdd	0.37341204
87	0x3ee8d46e	0.4547457
88	0xbf01d908	-0.5072179
89	0x3ec0ca37	0.37654278
90	0xbed06248	-0.40699983
91	0xbf062c0d	-0.52410966
92	0xbed47872	-0.41498142
93	0x3dd1c320	0.10242295
94	0x3ee304b8	0.44339538
95	0x3ec2d5c9	0.3805373
96	0xbf0cabb0	-0.54949474
97	0x3ee30a72	0.44343907
98	0x3ea5ffb7	0.32421657
99	0xbefd3e53	-0.49461612
100	0xbed29e8c	-0.41136587
101	0xbd501192	-0.050798006
102	0xbe2adac2	-0.16685012
103	0xbd0b04d2	-0.033940144
104	0xbf02ecba	-0.51142466
105	0x3e5131a9	0.204291
106	0x3eb3a216	0.350846
107	0x3e844772	0.25835758
108	0x3dec5a1d	0.11540625
109	0x3ead3dc4	0.33836186
110	0x3d447426	0.04796233
111	0x3ed2d829	0.41180542
112	0x3d8d87cf	0.06910669
113	0xbe8a4d0b	-0.27011904
114	0x3ec12153	0.37720737
115	0x3ed2d005	0.4117433
116	0x3ec5b38b	0.38613543
117	0x3e2fb0a7	0.17157231
118	0x3e2492c3	0.1607161
119	0x3d8af234	0.06784478
120	0x3e93adfa	0.2884367
121	0xbec0bb70	-0.37643003
122	0xbf04ffea	-0.51952994
123	0xbefc4537	-0.49271557
124	0x3d888be6	0.066673085
125	0x3ef7c953	0.48395786
126	0x3c81f212	0.015862498
127	0xbf0c8581	-0.5489121
128	0xbe946376	-0.28982133
129	0xbeaa62d2	-0.3327852
130	0x3eabc704	0.33550274
131	0xbbf127f7	-0.0073595005
132	0x3ea36c19	0.3191841
133	0xbc0d9be4	-0.008643124
134	0x3e87237a	0.26394254
135	0xbcbcbc60	-0.023039043
136	0xbe205c50	-0.15660214
137	0x3e6a9b3d	0.22910781
138	0x3e9521d9	0.29127386
139	0x3eb68218	0.3564613
140	0xbea2c8d8	-0.31793857
141	0x3e19cf23	0.15020423
142	0xbe9d9b53	-0.30782565
143	0xbf013583	-0.5047228
144	0x3eadc06b	0.33935866
145	0x3ecd27e0	0.40069485
146	0x3ea44598	0.32084346
147	0x3e2634b7	0.16231047
148	0xbeca522d	-0.3951582
149	0xbc6c934e	-0.014439417
150	0xbec1b71a	-0.37835008
151	0x3e7fdd83	0.24986844
152	0xbe6ed4ce	-0.23323366
153	0x3ec50a98	0.38484645
154	0x3d318164	0.043336287
155	0xbedcc53b	-0.43119225
156	0x3d988a4b	0.07448252
157	0xbeb9a2c8	-0.36257005
158	0xbf0e0564	-0.55476975
159	0xbe28f226	-0.16498622
160	0x3ec6fce5	0.38864818
161	0xbed116f4	-0.40837824
162	0x3e868edb	0.26280865
163	0x3ec39c8a	0.38205367
164	0x3d89c102	0.067262664
165	0xbe118f52	-0.14214829
166	0xbe676526	-0.22597179
167	0xbe0acf80	-0.13555717
168	0x3e4d314b	0.20038335
169	0xbdbdc49c	-0.09266016
170	0xbeafd2a8	-0.34340405
171	0x3e848666	0.25883788
172	0xbe55f081	-0.20892526
173	0xbeb05e07	-0.34446737
174	0xbeb2b1db	-0.34901318
175	0xbeea644d	-0.45779648
176	0xbedaa0a1	-0.42700675
177	0xbe0a1f4b	-0.134885
178	0x3e7cc222	0.24683431
179	0x3ed75eaa	0.4206441
180	0xbf074446	-0.5283855
181	0xbef1b6bb	-0.47209725
182	0xbebf4bac	-0.3736242
183	0x3eb593d4	0.35464346
184	0xbe75be7a	-0.23998442
185	0x3e2f1022	0.17095998
186	0xbc94d34f	-0.018167166
187	0xbe9f013b	-0.31055626
188	0x3e2200ed	0.15820666
189	0xbeb6241d	-0.35574427
190	0x3e9d7b43	0.30758104
191	0x3eb31e35	0.34983984
192	0x3ec1af52	0.3782907
193	0x3e8ceadb	0.2752293
194	0x3cd53aaf	0.02602896
195	0x3d7c1685	0.061544914
196	0x3e73df92	0.23815754
197	0xbe4d7218	-0.20063055
198	0xbec4f238	-0.38466048
199	0x3ed47855	0.41498056
200	0xbca98caa	-0.020696957
201	0xbf16c0ca	-0.5888792
202	0xbf0ec806	-0.5577396
203	0xbf2d7837	-0.6776156
204	0x3e28fb38	0.16502082
205	0x3e8a36b8	0.26994872
206	0xbed2ec8d	-0.411961
207	0xbf1adfe7	-0.604979
208	0xbf42680c	-0.7594001
209	0xbe7c5888	-0.24643147
210	0xbf099654	-0.5374501
211	0x3dfcbd6c	0.12340817
212	0xbf1accec	-0.60468936
213	0xbe850da6	-0.25986975
214	0x3d52219a	0.051301576
215	0x3e020d5a	0.12700406
216	0xbe8186ef	-0.2529826
217	0xbf0e370d	-0.5555275
218	0xbf211718	-0.62925863
219	0xbef04362	-0.4692641
220	0xbea624dd	-0.3245
221	0x3ee638a9	0.44965103
222	0x3dedd36f	0.116125934
223	0x3e48325a	0.19550458
224	0x3eb63161	0.35584548
225	0xbdc494ff	-0.09598731
226	0x3f0d5a83	0.55216235
227	0x3e90d5d6	0.28288144
228	0x3d9b3a2f	0.07579457
229	0xbdd5e0d7	-0.104432754
230	0xbef20dcc	-0.4727615
231	0xbf17b7bc	-0.5926473
232	0x3e362419	0.17787208
233	0x3d04d270	0.03242725
234	0xbec9e7e0	-0.3943472
235	0xbf209b7a	-0.6273724
236	0x3f42ecc6	0.7614254
237	0x3e6c198c	0.2305662
238	0xbe87fed4	-0.26561606
239	0x3d99c029	0.07507355
240	0x3ca2ff8f	0.01989725
241	0xbee76621	-0.45195106
242	0x3eb0df4b	0.3454536
243	0x3e5eb581	0.21748926
244	0x3c28973c	0.010289963
245	0xbe41e806	-0.18936166
246	0xbe63e3c7	-0.22254859
247	0x3ec22cec	0.37924898
248	0x3ebb2a5e	0.3655576
249	0x3f0f862a	0.56064093
250	0xbc438b0d	-0.011935008
251	0xbee2960f	-0.4425511
252	0x3f0a1b1a	0.53947604
253	0xbe91794b	-0.28412852
254	0xbe892d89	-0.26792553
255	0x3e8b6a69	0.27229622

fc3.bias f4 [3]
0	0xbd3f8fd2	-0.046768017
1	0xbd04a0b1	-0.03237981
2	0x3c582765	0.013192986
